classify_model.pth (torch, 15551 bytes, 2 tensors)

weight f8 [6, 300]
0	0xbfd53671493952ea	-0.3314479079320295
1	0x3fe51d31adfd905a	0.6598137281657828
2	0x3fab61ecc5e55dc0	0.05348148265573682
3	0x3ff012b24770c519	1.0045645514149497
4	0x3ff3dd697a3c97de	1.2415556692953866
5	0xbffc3d341c52af80	-1.7649422747008146
6	0x3ff05113f3a17fd5	1.019794418032679
7	0xbfe156117a0e673d	-0.5417563804541953
8	0xbfd729f55b01feba	-0.36193593871574203
9	0x3fcca484b88a7ae2	0.22377070437229124
10	0x3fdaf98bddf33794	0.42148110079585277
11	0xbff551dc7472e41a	-1.3324856327801684
12	0xbff39f100dc55b66	-1.226333669464759
13	0xbfe47da900a088dc	-0.6403393757102793
14	0xbff27f69ece56eb7	-1.156106877685415
15	0xbfedb5b09774ebe2	-0.9284289320124766
16	0xbfc07abfd527b635	-0.12874601276364364
17	0xbfaf384a06c9de5c	-0.06097632725589783
18	0xbfc855fbb433a9bf	-0.19012399958530854
19	0xbfee8fdb288bfd4f	-0.95506055754951
20	0xbfe1a0b9954fda2f	-0.5508697429893966
21	0xbfeac5920831b388	-0.8366174850503834
22	0x3fc4f30f3dde76f3	0.16366758843371762
23	0x3fd5bf233ee2ba9d	0.3397911180608533
24	0xbfc31ea443c842fb	-0.14937260923081638
25	0x3ff7b824e3cac177	1.4824570558667725
26	0x3feeccc8f4501bad	0.9624981662499202
27	0x3fdaa024fbfcadaf	0.41602444275005274
28	0xbfd52dbd15dd4094	-0.3309166635053853
29	0xbfec5a676aa38a83	-0.8860356409825986
30	0x3feb9b1731851a5c	0.8626819579302025
31	0x3fd3749bdbf1cffc	0.3039922378441131
32	0xbfafed3f661cc2d0	-0.062356930937658483
33	0xbff3aad0f80f3e20	-1.2292031946016166
34	0xbfd77969273159a4	-0.3667853243581709
35	0xbfe9c5008315de85	-0.805298095728134
36	0xbfe01255c05c3ff9	-0.5022381550825222
37	0x3fa6b6aaae24edad	0.04436238647255251
38	0x3fa9cdde3390f8aa	0.050398772997583066
39	0xbfe1d31d815659b3	-0.5570209051245939
40	0xbfe3a6d08878d138	-0.6141131082027078
41	0xbfe5486f451bd8c8	-0.665092120149688
42	0x3f9df22c04330644	0.029244125133806045
43	0xbff9f8ac0ff86602	-1.6232109664764498
44	0xbfbaa52bad42fe43	-0.10408280353566916
45	0x3ff06185fb8e9d99	1.0238094164322773
46	0x3fd6d6ca1ab06ebe	0.35685970884672347
47	0xbfec8299eee7a25c	-0.8909425417051113
48	0x3fa7505e503312d7	0.04553503731725577
49	0x3fe805d7b17eddab	0.7507132021627759
50	0x3ff0740ce7f48e84	1.0283326206926242
51	0x3ff26401da742498	1.1494158299777038
52	0xbfe39abbfe42ea9e	-0.6126384702723333
53	0x3fe274177efd8724	0.5766713600425857
54	0x3faffb3341cb4d9f	0.062463380605233036
55	0xbff5b5510957362e	-1.356766735541338
56	0xbfd790c654c3d454	-0.3682113483221816
57	0x3ff4933adc59e398	1.2859448058572749
58	0xbfab906252186f7a	-0.05383593799726234
59	0x3fa5b6626d8aa04d	0.04240710818459146
60	0xbfeb02110249819e	-0.8440022511168086
61	0xbff464df46176225	-1.2746269929831524
62	0xbffea1bbbd07ae35	-1.9144856819138003
63	0x3fb40d904dd457e1	0.0783319654477448
64	0x3ff0302d3a153004	1.0117618817193952
65	0xbfee930fdf78b90e	-0.9554519047431158
66	0xbfcfee4f0d2a90bf	-0.24946010725864728
67	0x3ff0c3f10756a50d	1.0478372847231328
68	0x3fed54e0e0598ae5	0.9166111356574588
69	0xbff87b465b5f6795	-1.5300963944668855
70	0xbff4cb4fd6c71130	-1.299636687254928
71	0x3fe1a67fd4449e5c	0.5515746255741294
72	0x3fd1a2a152e5d029	0.27555115790824175
73	0xbfffe87427d326d5	-1.9942513995796862
74	0xbfe3f16328f7e635	-0.6232162285006725
75	0x3ff9e5f4a613a377	1.618641518342171
76	0x3ff2205d6f8118b5	1.1329016070972504
77	0x3fcfe6bd41df70d9	0.24922910419889524
78	0x3fbf09cb944d06bd	0.1212432133734422
79	0x3fe48e23931ec69a	0.6423509477082974
80	0xbffc836ee68e6264	-1.7820881849385382
81	0x3ff2897408bfedd8	1.1585579244409612
82	0x3fd569ed77bf1ada	0.334590308132119
83	0x3fe87785b22b63bd	0.7645901183960785
84	0x3fd1ec5d34256964	0.28005151836773323
85	0xbf8f41fd47b928c5	-0.015262583495445967
86	0xbfde8617ac0100e8	-0.476934354755953
87	0xbfcb285cf521ab24	-0.21216928452789674
88	0x3fe0109995ed9d03	0.5020263603481968
89	0xc004e13d97a453cf	-2.609980759336828
90	0x3f9ba7b157acadec	0.02700688455221993
91	0x3fe3cf0e2fac9678	0.6190253192077781
92	0x3fc863f6e625bce5	0.19055067289034536
93	0x3ff3129f582a33ab	1.1920464939059723
94	0x3ff2b92b77533d06	1.1702074681414287
95	0xbfe7fb1f11973dc6	-0.7494044631547971
96	0xbfec0c47297d83b7	-0.8764987764699218
97	0xbff0d8815dd62a8b	-1.0528577485553423
98	0xbfeaedba1e45276f	-0.8415194121564421
99	0x3ffafc9eeb967d1f	1.686674995675112
100	0xbfed67d6a4c2bc5f	-0.9189255922300495
101	0xbff65c70fadbcba8	-1.397568683544458
102	0xbfea03eec6bcbe85	-0.8129800683581868
103	0xbfee0970ae9d164e	-0.938652363817434
104	0xbff17aa24a9cefc5	-1.092439929444468
105	0x3ff0f3751a5bf563	1.0594378499657402
106	0x3fde73b57642bca9	0.4758123068704188
107	0x3fd54f932da6f7e7	0.3329818673918212
108	0x3fe94fc611ab614d	0.790988001356746
109	0x3fee21c60533bdf3	0.9416227437595225
110	0x3fcaca43d22c5d3c	0.20929763567321824
111	0xbfe32d1b0f01c85f	-0.5992560666184196
112	0x3fd7c7d71c49bdf2	0.37157228243356066
113	0x3fd0863fabcbedbf	0.25819389130603193
114	0x4001b64629698bc6	2.214001010449894
115	0x3fefaa4bde3beac6	0.9895381298550425
116	0x3fdb6f9cf2600a43	0.4286873213715447
117	0xbfddceb2ea93a96e	-0.46574089916125316
118	0xbfdb252bdb962bb2	-0.424143757286113
119	0xbfe5306e4d8706b5	-0.6621619714935237
120	0x3fe2cb1a83c3d884	0.5872929166350933
121	0xbfd571c7b558b890	-0.33506958684564214
122	0x3ffc7bcd7a1ad89d	1.7802252549859425
123	0x3fe5254e48503270	0.6608039295548007
124	0x3fe7b16b81bfc140	0.7404077085648524
125	0xbfe054c86450c72d	-0.5103494605338931
126	0x3fe1f567d0efbc5a	0.5612067299642931
127	0xbfe0318822434ad3	-0.5060463589855665
128	0xbfdcdad3903e071b	-0.45085610471879684
129	0xbfb048e705020eb8	-0.06361240265146761
130	0x3ff5907dfe316839	1.3477764062322548
131	0x3fd177a511a302e4	0.27292753908481715
132	0x3feebf93eacc07e6	0.9608859620932406
133	0x3fcb88c2784abd4d	0.2151110732424776
134	0x3f9ddcf7bb3572ae	0.029163237382237632
135	0xbfe0a78e723b8a5b	-0.5204536658387257
136	0x3fe519f05ee2dad9	0.6594163754696992
137	0xbfd6802e5b325638	-0.35157355218811714
138	0xbff27c7d970e12cd	-1.1553932095131814
139	0x3fbab3d55e3736f2	0.10430654096782258
140	0xbfcfa95f10030ca2	-0.24735630304175965
141	0x3fec6809015c6e58	0.8876996065695932
142	0x3fdf55b947b87e80	0.48960716251347236
143	0xbff940ea7d33fead	-1.5783486262079507
144	0x3fd68ad4129c9c09	0.35222341363481796
145	0xbffb05b6c91ddf66	-1.6888950210686402
146	0x3fd12a2b97e2744f	0.2681988700149462
147	0xbfe0b34023f271e9	-0.5218811704722245
148	0x3fe45cb927be74f0	0.6363187576531839
149	0x3fc1e8648b2e7db8	0.1399045638654408
150	0xbff3b4652a138b56	-1.2315417903525563
151	0x3fe589cd6b3746c4	0.6730715841351516
152	0xc0025544806138ba	-2.2916345624608683
153	0x3f921627e2bf2bd2	0.01766264268352897
154	0x3fb39fd8a5212085	0.07665781051139405
155	0x3fff7473a1935272	1.9659305869619428
156	0x3ff3ccebb9774691	1.2375294918787498
157	0xbffd8592f8a2808d	-1.8451108658119069
158	0xbff988fbbfadba76	-1.5959432113119454
159	0xbff993306c9a7798	-1.5984348528213328
160	0xbfe17f50cbaa285d	-0.5467914560151815
161	0x3ff7ce04ad9b3daf	1.4877974301815404
162	0xbfda606e6b2c69c2	-0.41213570085679063
163	0xbff3c91a1bdce4c8	-1.2365971649544907
164	0x3ff06530d7147de5	1.0247047807277962
165	0xbff32c4cca1841e3	-1.1983154196096784
166	0x3fe15e1294cc0dbb	0.5427334696000153
167	0xbff579c4bf8f6bd5	-1.342228649408516
168	0x3fd5d5cb212229f8	0.34117391811074027
169	0x3ff80daf6144f6b3	1.5033410834870835
170	0xbfc9e0d0662985ee	-0.20217328060520806
171	0xbfe2cf8e6dd6edc4	-0.5878364701560987
172	0xbfd1f49bb99332b4	-0.28055470583494047
173	0x3fd09cf2350ac6d4	0.25957923107044434
174	0xbfedf4a2ea6836a8	-0.9361128404868468
175	0xbfe59f2dbe558310	-0.6756809918843789
176	0xbff34e4626c7a081	-1.2066098704181345
177	0xbfdb07d4ee29cba3	-0.4223530126393433
178	0xbfe4bf73178ee314	-0.6483703098411717
179	0x3fd5e30b40442afe	0.3419826629257584
180	0xbfd39d4bd9fbb653	-0.306475603937405
181	0xbfbb3df6c13a5812	-0.10641424386480505
182	0xbffcef91bc203532	-1.80848859297414
183	0x3fd744c63c61f479	0.3635726537393747
184	0xbfc9c0b595befcc1	-0.2011935216123444
185	0xbff98025b60194c6	-1.59378596397555
186	0xbfc3df8060c15e58	-0.1552582237661564
187	0x3fbf6d89e0a99695	0.12276517615245049
188	0xbff06a3f7a6657da	-1.0259394437066391
189	0xbfe3a803fdc4e58a	-0.614259715693309
190	0xbfe2a9175343a440	-0.5831410051588435
191	0x3fd68a5246d1bc2f	0.35219246784157837
192	0xbfdef04baad2bf7c	-0.483416477984967
193	0xbfc2d61372a7510e	-0.14715808008498538
194	0xbfe320d16ec730ca	-0.5977561153063331
195	0x3fc1003d0a00a0dc	0.13281977642441845
196	0xbfd609bbeab605b4	-0.34434411927221764
197	0x3f92e2d99d823f20	0.018443489302227722
198	0x3fe11d6bdb10c459	0.5348414686797113
199	0x3fe2048a893e1e6c	0.5630543404121915
200	0xbff0363e7a543860	-1.013243177268599
201	0xbfdb27d6ad1b2ce4	-0.4243065538873465
202	0x3fc59b855c3209fc	0.1688086223767441
203	0xbfd5d2d565e0357f	-0.34099326084909615
204	0xbfe3c4c2ef66ecfe	-0.6177687335797655
205	0xbffe44edac660d25	-1.8918282255479622
206	0xbfe25ef2805d876a	-0.574090243066377
207	0x3ff14f5e3f96dd9e	1.0818769916494158
208	0x3fc8a33147017793	0.192480239554183
209	0xbffb3749cb14f0d4	-1.700998109138756
210	0xbfe75e0dbeff7e80	-0.7302311640195995
211	0xbff63d75068b9005	-1.390004182402664
212	0x3fb0dc97aa4ccbb9	0.06586597354616587
213	0xbfe480bdd0c5cd30	-0.6407155110922869
214	0x3ff7ea7195c7c6c0	1.4947372294231371
215	0x3fe2510ba2cd14a0	0.5723932437619119
216	0x3ff32601410194e0	1.1967785395912003
217	0xbfd84282e536d1d4	-0.3790595282000855
218	0xbfc22d78a50aac42	-0.14201267298389736
219	0xbff7191ed43eba04	-1.443632916528828
220	0x3fd9b84bd2d3174c	0.4018735464891179
221	0xbfc1ee6cc06de498	-0.14008864780388275
222	0x40055e52327137e9	2.6710552159120096
223	0x400257d24a9436bb	2.292881567619444
224	0x400308a17f5e82ce	2.3792142821042495
225	0x3fe2f02f6d33afcf	0.5918194897508274
226	0x3fe1b3563cc5b613	0.5531417071303529
227	0x3fe546716a53e300	0.664849002524619
228	0x3fbe2a4bd190ccb7	0.11783288828228221
229	0x3fc7f2e5724b41b2	0.18710010605583488
230	0xbfc130c776112186	-0.13430112137781353
231	0xbfd88e8c4904e9d8	-0.3837004387929972
232	0xbfee69fd589f0805	-0.9504381876834037
233	0x3ff3c11dd84d41e8	1.234647602967124
234	0x3fbcfdc0d38e9908	0.11324696698156711
235	0xbfcec4798334f582	-0.24037093073449617
236	0xbfb75a8b90a5c875	-0.09122535973964026
237	0xbfefd45b0c90e233	-0.9946723218373051
238	0x3fc632c8d54c392b	0.17342482008866375
239	0x3fe9a4a324626e17	0.8013473234781853
240	0xbfd69e9460281148	-0.35342893018993893
241	0xbff2b67c1ff1fae6	-1.1695519683705071
242	0xbff1e56bf24b3cab	-1.11851114889195
243	0x3fe024a2b082cdce	0.504472107646899
244	0xbfd2354590aa6f57	-0.2845014488936974
245	0xbfef720933577e04	-0.9826704027909163
246	0xbff9ac176a6c9f1b	-1.6045145184707
247	0xbfffb6e3613a8564	-1.9821504400245766
248	0x3fecde4e8cd526c3	0.9021370649945414
249	0x3fe6e50fedeb0c65	0.7154616972769757
250	0x3ff30a9287d114f6	1.1900811486569274
251	0x3fda30860170d87d	0.4092116369314523
252	0xbff049a5be6161a2	-1.0179803311094493
253	0xbfe8f10a1863b1b1	-0.7794237591129357
254	0xbfccae28a547cdc6	-0.2240649039300548
255	0xbff8b1a0dbaebf43	-1.5433662968971056

bias f8 [6]
0	0xc009dd99fcc42bae	-3.2332038638464473
1	0x400d1c049143413b	3.6386805866860903
2	0xc00751119f95a851	-2.914584395174679
3	0xc0094f3015cff507	-3.163665933998917
4	0xc008a97a3108d4d6	-3.0827525931186797
5	0xc0097093cc889fd3	-3.179969404143756
