classify_model1.pth (torch, 38015 bytes, 2 tensors)

weight f8 [6, 768]
0	0xbf91f295ee75847b	-0.017526953391442817
1	0xbfc6853d3459b72d	-0.17594113403486614
2	0x3fb20416eada48af	0.07037490113933374
3	0xbfd0e8fb9d9fb246	-0.26422014611197076
4	0x3fb64041e9afea89	0.08691799121144518
5	0x3fa6e805ad2c4b70	0.0447389387028555
6	0x3f9dd8bfcfc352af	0.02914714532456014
7	0x3fc35753eb0fcc39	0.15110253312704616
8	0x3fa0547a44bae232	0.031894513025182994
9	0xbfc2745cadce4a86	-0.14417608725178271
10	0xbfd09deabe6724fa	-0.25963848680528623
11	0xbfa7b8c3c0390209	-0.046331517424281606
12	0xbfbba4342c233a1d	-0.10797430112436542
13	0xbfb446b5b1743bc0	-0.07920394499181693
14	0xbfa83c3f908eaba4	-0.04733465804687079
15	0x3fbaae08054b6aee	0.10421800736677841
16	0x3fd2f0c77485dddc	0.29594599131766386
17	0xbfbadc66d00ae8c6	-0.1049255617062129
18	0xbfc28bcb71453b67	-0.14489119559081162
19	0xbfb5a8ca0c5bddf7	-0.08460676957826495
20	0xbfd2d54036249128	-0.29426579749476156
21	0xbfb8da4d2f7f5e27	-0.09708101663215328
22	0x3fb1f574a22e96f0	0.07015160522004371
23	0xbfb4f59530d40c5e	-0.08187229578111174
24	0x3fba5d34da95b3ea	0.10298471771757503
25	0xbfc0ed603e07cc4f	-0.1322441389926063
26	0xbfb032601527916a	-0.06326866642445386
27	0x3f8c046f458ce330	0.013680333433158859
28	0x3fc01d6f19078bec	0.12589825365202445
29	0x3fb18092e2ef4804	0.06836813011548776
30	0xbfb08f902a2f9fde	-0.0646905997269864
31	0xbfd011f9e6a1801a	-0.25109717867417347
32	0x3fb0ed040a478bb2	0.06611657381976846
33	0xbfd06131f24c8416	-0.2559323183250525
34	0xbfd0f608ff3f75ca	-0.2650167935042559
35	0x3fc92ec3cce2f406	0.1967396498129405
36	0xbfd329062174cb01	-0.29937890307626
37	0x3fc3f9f523d10ce7	0.15606559990747046
38	0x3fc4a50f04dca92b	0.1612871907939931
39	0xbfac362ba4f420cf	-0.055100788007679584
40	0x3fc6e09a7aea2c5d	0.1787293529672266
41	0xbfa3a6f511d92d21	-0.0383831581389933
42	0x3fbdd6ccdb2d5968	0.11655884123806504
43	0x3fb549796f7c02be	0.08315237972056885
44	0xbfb595d9b9d4633f	-0.0843177870450633
45	0x3fcb8af107b962df	0.2151776588168763
46	0xbfaccbd7634194bf	-0.05624268614409677
47	0x3fa58aa18c5f8ae2	0.04207329596080968
48	0x3fc8cf6f1cd612bb	0.193830384330928
49	0xbfb84436aa20fdc8	-0.09479085591828273
50	0xbfb0f4cd94f8afc8	-0.0662353981685434
51	0x3f792fc5d03768be	0.006149075230007904
52	0xbfcd34487c3c9652	-0.22815805498355474
53	0xbf93496f11e020c0	-0.01883481546977417
54	0xbfb797a274b28193	-0.09215751027159617
55	0xbfc1de020c379356	-0.13958764645135585
56	0xbfb5ac15f724b0f8	-0.0846570709588298
57	0xbfb4343569da2504	-0.07892164072304203
58	0x3fae0fcd35663fa9	0.0587143066105676
59	0xbfb6fc6bd0f32527	-0.08978914119065405
60	0xbfb532b3faf45570	-0.08280491711442095
61	0xbf838e5346a40fd4	-0.009548807709968722
62	0x3fc6756a1954b010	0.17545820462089567
63	0x3fb8c87c1694a762	0.09680915404592619
64	0xbfa3907e7f398bd9	-0.03821177771603574
65	0x3fbf23f17e0b8c47	0.12164220168374228
66	0x3fb0aae7bd5c8e2f	0.06510780690273842
67	0xbfc084e0d63c978c	-0.12905512295509103
68	0x3fb0934f5cfc68f4	0.0647477724091095
69	0x3fccf77b1f0482ad	0.22630251898319412
70	0x3fbb3773dc91c333	0.10631488928789849
71	0xbfb2e59190c94623	-0.07381543907947523
72	0xbf63f915f1e2be68	-0.0024381092653909427
73	0x3f69cd7da66eaea9	0.0031497434715300377
74	0xbfb309789f1a44b6	-0.07436326870289886
75	0xbfc95f1718554d74	-0.19821442306657
76	0xbfb16aa537c3fa5a	-0.06803352939093923
77	0x3fc568843f4eb631	0.16725209323105752
78	0x3fa7fdb4c50b8775	0.046857499173497276
79	0x3fc2d7916671d1f2	0.14720361234834872
80	0x3fd106de365b2523	0.2660441904850634
81	0xbfc2f2dc048e8388	-0.1480364820718274
82	0x3fb005f6e9fd6ab7	0.0625910111679485
83	0x3fcfe511bda6324d	0.24917814026084031
84	0xbfcd614b4653ec8e	-0.22953167852378836
85	0x3fc0e79656d9ea74	0.13206748238356492
86	0xbfd04f319466294c	-0.2548335980615277
87	0xbfaa9ee3380edb8f	-0.051993465989134006
88	0xbfa6760428fc779d	-0.04386914253539873
89	0xbfba3cb9ad8f86b2	-0.10248909461327108
90	0xbfb7b1441aa97d6b	-0.09254861498765414
91	0xbfd6df07d662870b	-0.3573627084352757
92	0x3f8e0220d4c02c46	0.014652496807704318
93	0x3fdc8bd3d29bcde9	0.446034389183494
94	0x3fc6f9001a26aa17	0.17947388913064863
95	0x3fc859e9ce3b9f48	0.19024393625226765
96	0x3fc456955a1064ad	0.1588923158422281
97	0xbfb83016d98cdece	-0.09448378382955555
98	0x3fc7ff079ac2f463	0.18747038895336052
99	0x3f7819a8b301155f	0.0058838453115347125
100	0x3fdbb45d893a1330	0.4328836288553246
101	0xbf9a2171cac4dd87	-0.02551820564369003
102	0x3fc4c72a96b23127	0.1623280750103586
103	0xbfbd9540c6888da8	-0.11555867049224011
104	0x3fc2db16f3586cf3	0.14731108553028313
105	0x3fc6e33427a60fe9	0.17880870758028714
106	0x3fcd61e969283bc7	0.22955052981020982
107	0xbfcbe6bcfe4b437d	-0.21797907273005626
108	0x3fae2fbbb07a737d	0.058957925122036216
109	0xbfce3ddc90f72f33	-0.2362628658141773
110	0x3fc8ef20933e5ba6	0.1947975844347784
111	0xbfcca4dd3da5492e	-0.22378125677148247
112	0x3faae161f7cdc4e5	0.05250078344296031
113	0x3fd2e3c4180dc9d5	0.2951517329121576
114	0x3fcd7a4b2612e760	0.23029460295748105
115	0xbfd11ab1675f8dbc	-0.2672542104248483
116	0xbfb8fadc71fa8e6f	-0.09757783682521802
117	0x3faa84aea9bdee7c	0.05179353544278073
118	0xbfc995059addec99	-0.19986028730258878
119	0x3faaa4d5763f572c	0.052038832363605486
120	0xbfc26de22f587d87	-0.14397837936210697
121	0xbfa9bee05cd00ac3	-0.05028439648596852
122	0xbfc0844728d9d014	-0.12903680319470878
123	0x3fc64c761fe97770	0.17420841749384008
124	0xbf938ce548ce5dd0	-0.019092161720974776
125	0x3fbf8f577080e2fe	0.12328096863428681
126	0xbfd210301ac5c42b	-0.28223803152565335
127	0x3fc02b4ba0899684	0.1263212713121683
128	0x3fa6cf2b9c620c93	0.0445493343732092
129	0xbfce19e70573b200	-0.23516547933776621
130	0x3f601dea8dd4ae9c	0.001967390168507622
131	0xbfa6ac0440e2b780	-0.04428113262234401
132	0x3f9424ca0dfe5e01	0.019671589950659655
133	0x3fd1a433e9a69998	0.27564714257678125
134	0x3fd4f66c29378e45	0.32754043603037913
135	0x3fc2e70425510933	0.14767505476090434
136	0xbfb2b484ebaff278	-0.0730670047195846
137	0xbfd6612f496a6b0a	-0.3496816842031626
138	0x3fabb964ed295473	0.054148820829745946
139	0x3fd774f4e8fad769	0.36651346923769396
140	0xbfc098abae7070f0	-0.12965913789310646
141	0x3fa6f50d9a972621	0.04483835708704143
142	0xbfb7d4d4fcfdad14	-0.09309130836998164
143	0x3fc0e72c2c336c20	0.1320548263382486
144	0xbfa20dea815e9919	-0.03526242093293969
145	0xbf972ee4dd3800cd	-0.022639823915597646
146	0x3fb84541e41aa31c	0.094806783856836
147	0x3fa242395e0e2d26	0.03566149972092551
148	0x3fc3b14fac6995a1	0.153848609147798
149	0x3fc9c6fdc4a62a0d	0.2013852319908697
150	0x3f98f3b8f6702286	0.024367227593787642
151	0xbfb8e2721fc808ba	-0.09720528865730929
152	0xbfc2eed7bfa596c3	-0.14791390283351377
153	0xbfbd20e03a7bd829	-0.11378289630724282
154	0xbf772c3967af0f6f	-0.005657409895267181
155	0xbfc37be05f4ed2c3	-0.1522179093714354
156	0xbfcff99b47ae10ad	-0.24980488777157941
157	0xbf9bc543136d5a18	-0.02711968236993742
158	0xbfd579db150eecdc	-0.335562487187145
159	0x3fb760b39762a323	0.09131929822855205
160	0xbfa64661a4848231	-0.0435057175948298
161	0xbfabeda81a32295c	-0.05454755134367659
162	0x3fd2e27384acfc79	0.29507148701299674
163	0xbfaa6359c9cc0b37	-0.05153923595755432
164	0xbfc455b51447a6ef	-0.15886558046559382
165	0x3fc58d7a581ec1ac	0.16838006308308928
166	0x3fd2b482eee8e918	0.2922675450423795
167	0xbfa45efaf91fd4e0	-0.03978714266842487
168	0x3faef4376043fcb5	0.06045697260014419
169	0x3fdbfc8476a53b27	0.4372874411246123
170	0x3fc14d2b12496d38	0.13516748803054113
171	0x3fa75d8cd229e936	0.04563560548281702
172	0x3fb886a444ab9731	0.09580446888466267
173	0x3fcaf362fd366b97	0.21055257190604657
174	0xbfbe6ca77208095f	-0.11884542974443012
175	0xbfac36ae37faf133	-0.05510467942574095
176	0x3fc407a557cd8790	0.15648333346603893
177	0x3f8fae297cff24f2	0.015468906523795376
178	0xbfabed7b00e3d558	-0.05454620729316656
179	0x3fbe7aa73d791083	0.11905904055407927
180	0xbfc3b121f861c729	-0.15384316089653652
181	0xbfba8a8cf14aaaf8	-0.10367661372098869
182	0x3fc3855aee2e1cbe	0.1525071776379487
183	0x3fae6b5a3ad3fff4	0.059412784272353664
184	0x3fb494cce8b9055f	0.08039551431376911
185	0xbf52a864f0ec9247	-0.0011387811425233195
186	0xbfb03233d67522b2	-0.06326602922230043
187	0x3fcdb76c473f7f38	0.23216012457759816
188	0xbfa295a0063822f1	-0.03629779888075813
189	0x3fc7abcc7cdaed27	0.18493038269466774
190	0x3fc3da0ccef89044	0.15509185892108424
191	0xbfb30d2793ab9679	-0.07441947322112154
192	0xbfbd2fa7cf487174	-0.11400841532344491
193	0xbfadbc51255116ba	-0.05807736950423022
194	0xbf867f4b03d817ea	-0.010984979681790425
195	0xbf92f24865d7b015	-0.018502360549902692
196	0x3fb423cca2bf8c11	0.07867125485749706
197	0xbf8721f7eb05f372	-0.011295258388366956
198	0xbf8d2bd611914923	-0.014243767176740868
199	0xbf9b2d7676f8b288	-0.026540614139025226
200	0x3fbc8f481c6c4c5f	0.1115613049881161
201	0xbfbaaf2348d2a2bd	-0.10423489120388303
202	0x3fc85702fdbddebd	0.19015538587313144
203	0x3fa7377075697cca	0.04534484322788897
204	0x3fce954b38547d17	0.23893108606805732
205	0x3f9f40291b6a16ec	0.03051819066833776
206	0x3fa7e0afddd054fa	0.04663610060394237
207	0x3fd68f5a2fa7c53f	0.35249952939837564
208	0x3fd3a165b2c250fb	0.30672590691507623
209	0xbfc15a3053f04294	-0.1355648431640658
210	0xbfc32a2c205c86f3	-0.14972449855945733
211	0xbfb8418eb26f9e0f	-0.09475032669399062
212	0x3fb7b43802a5ab55	0.09259367050769403
213	0x3f7b375344d30917	0.006644559163023331
214	0xbf97efc9a99e9771	-0.02337565515303858
215	0xbfa131a90e90dde0	-0.033582003620207024
216	0xbf94654d0a5ff050	-0.0199176824171306
217	0x3fbdcf3099b5f34b	0.11644271614745809
218	0xbfb68ac3d320607f	-0.08805488495306867
219	0x3fb01fc64168eae0	0.06298483941001676
220	0x3fbf2a575eacef2d	0.12173982678808377
221	0x3fc26fe22ef49570	0.14403941433662792
222	0x3fb6d856b58828b6	0.0892385667031331
223	0xbfc48d940599ead3	-0.16057062409875886
224	0x3fc6e60066e4ccbc	0.17889409088238561
225	0xbfa0a276ec4b4600	-0.032489506096350595
226	0x3fbcea3b93486f34	0.11294910760665006
227	0xbfd62ce87c585c55	-0.34649097579080507
228	0xbfd56150eb207e1a	-0.3340647026215905
229	0xbfb23751e8ba72f8	-0.0711566155609481
230	0xbfb347c1653bc831	-0.07531365129014557
231	0xbf9f1eb57dcdeadd	-0.030390582850922655
232	0x3f8823e3fec51dfa	0.011787205898726495
233	0x3f93aa6bd39a574f	0.019204792776313536
234	0x3fc1a1cb7b944bbf	0.1377500871099908
235	0x3fa8be418ce5f5b6	0.04832653851461137
236	0x3f900f434a5ef17e	0.015683223165738884
237	0xbfb71e4f3dfed672	-0.09030623687325504
238	0x3fd2b498767a8b64	0.2922726780909015
239	0x3fc11466fbc5aa9d	0.1334351281505705
240	0x3fb815d688599bee	0.09408322171076097
241	0xbf90f90bf72484a5	-0.016575037917509267
242	0xbfab73a452d19f7a	-0.053616652593347205
243	0xbfb2a869924d10e4	-0.07288226911356649
244	0xbfafdc4d490cf2a0	-0.0622276450799053
245	0xbfba2b4c05bcbbc2	-0.1022231592184957
246	0xbfc1e5f86362983c	-0.1398306355742437
247	0x3f985a1bead8ac9a	0.023781238755117153
248	0xbfc2e2fd81df6c49	-0.14755219308321646
249	0x3f9eac2242668c7c	0.0299535134341906
250	0xbfd1de27403d1a9a	-0.2791841628390245
251	0xbfc3da4845045025	-0.1550989472385719
252	0xbfd12a5187952348	-0.268207914738515
253	0x3f7d1eebdf33f579	0.007109567045742942
254	0xbf9f50090027dba7	-0.03057874740076341
255	0x3fc1ab544f96dfea	0.13804105650137838

bias f8 [6]
0	0xbf7f88ca7bb24e37	-0.007698813390692608
1	0xbfb425bbfa9b61ca	-0.0787007796128655
2	0xbf9b7846f30b0a51	-0.026826008400130445
3	0x3fabc42235e5994e	0.054230755881507706
4	0xbfa209a719514b48	-0.0352298944859713
5	0x3fac9bf1a1e286d3	0.055877257357918396
